ch4. deep learning (RNN)/models/CAV_predictor.pt (torch_old, 8935 bytes, 8 tensors)

encoder.0.weight f4 [16, 9]
-0.16799688 -0.037280615 -0.14549735 0.019379374 0.2837432 0.034091845 0.088367924 0.2544163
0.048546117 0.083711825 -0.29745764 -0.19023362 0.406852 -0.07730628 -0.28688937 0.09331198
0.8653932 0.27770206 0.23384835 0.1711495 0.39219287 0.20991048 -0.10020664 0.16334116
0.06895656 0.25592077 -0.31158984 0.12570219 -0.27002347 0.049553894 -0.075962506 0.40194425
-0.10612324 0.023053858 0.3775211 0.121298894 -0.13016601 -0.15125862 -0.3236774 -0.25241607
0.23863746 0.22777636 0.043553427 -0.052471988 -0.29495838 0.32157916 -0.24165297 -0.15500303
-0.1013181 -0.19997466 0.1772112 -0.022067891 -1.05849 0.69850385 -0.32325333 -0.3270684
-0.01933384 -0.21239269 0.10282242 -0.19283986 0.2811418 0.2844251 0.02075389 0.13216095
0.39538231 -0.043121573 0.008866099 -0.17814785 -0.094762236 -0.22135085 -1.6409969 0.015352971
-0.07956987 0.017498821 0.29968834 0.0759484 -0.20110382 -0.20273393 -0.058940705 -1.5213562
-0.6966218 -0.037509616 -0.09577229 0.240826 -0.1630162 -0.14331025 0.046955265 0.17743823
-1.1706493 -0.4290911 0.15220529 -0.42943233 -0.16710411 0.4026476 0.23159198 0.49862993
0.4389112 2.842308 -0.24159704 -0.3136738 0.09618375 -0.22135076 0.24262539 -0.19409439
0.24543813 0.0045962036 -0.0006400347 -0.11290316 -0.035761945 -0.15840732 -0.14430648 0.16799098
-0.4795608 0.56113 -0.1341804 0.15973963 0.19868578 0.107363544 0.1657042 -0.33451048
-0.046859603 -0.1222982 0.1399642 0.110911064 1.2823312 0.22838485 -0.08984587 0.19037218
0.5142809 0.4166698 -0.09640001 0.038612094 0.175579 -0.70219004 0.00080783066 0.14035447
-0.23870112 -0.31651562 0.2736464 -0.26992628 -0.023137994 -0.036793325 0.15715197 -0.015496879
00000000: 6007 2cbe 8fb3 18bd 42fd 14be 7ec1 9e3c
00000010: ca46 913e e4a3 0b3d 3efa b43d da42 823e
00000020: 4bd8 463d 1b71 ab3d 5e4c 98be 9acc 42be
00000030: e84e d03e c152 9ebd 2ae3 92be 5a1a bf3d
00000040: 698a 5d3f f72e 8e3e f175 6f3e d141 2f3e
00000050: 81cd c83e c6f2 563e 2439 cdbd e842 273e
00000060: 1939 8d3d 0c08 833e b488 9fbe 13b8 003e
00000070: 8440 8abe 06f9 4a3d 3b92 9bbd a3cb cd3e
00000080: 2457 d9bd 72db bc3c 724a c13e 8e6b f83d
00000090: 3d4a 05be 8ae3 1abe 0bb9 a5be ae3c 81be
000000a0: 615d 743e 353e 693e 1465 323d deec 56bd
000000b0: c904 97be 06a6 a43e e073 77be 1db9 1ebe
000000c0: dd7f cfbd 28c6 4cbe da76 353e b9c7 b4bc
000000d0: 9a7c 87bf 26d1 323f 7681 a5be 8275 a7be
000000e0: 0062 9ebc 787d 59be 9094 d23d d077 45be
000000f0: d1f1 8f3e 2ba0 913e 1004 aa3c 3355 073e
00000100: 8d6f ca3e 3fa0 30bd 1d43 113c 646c 36be
00000110: b412 c2bd cca9 62be 300c d2bf 078b 7b3c
00000120: 87f5 a2bd b059 8f3c c070 993e d68a 9b3d
00000130: 29ee 4dbe 7c99 4fbe cf6b 71bd cdbb c2bf
00000140: ce55 32bf afa3 19bd 4324 c4bd 179b 763e
00000150: b8ed 26be ecbf 12be 2a54 403d 5eb2 353e
00000160: d6d7 95bf d4b1 dbbe b4db 1b3e 8ede dbbe
00000170: 571d 2bbe d427 ce3e 7326 6d3e 6c4c ff3e
00000180: f8b8 e03e 60e8 3540 3765 77be da99 a0be
00000190: fcfb c43d c6a9 62be ca72 783e aec0 46be
000001a0: 2254 7b3e c09b 963b 00c8 27ba c639 e7bd
000001b0: 1e7b 12bd 8735 22be 14c5 13be d405 2c3e
000001c0: fe88 f5be 37a6 0f3f 9666 09be c992 233e
000001d0: 4974 4b3e 6be1 db3d 5dae 293e f544 abbe
000001e0: dbef 3fbd 7b77 fabd c652 0f3e 5725 e33d
000001f0: 6e23 a43f b8dd 693e 1d01 b8bd edf0 423e
00000200: eaa7 033f be55 d53e 5e6d c5bd b727 1e3d
00000210: fbca 333e bac2 33bf 99c4 533a 15b9 0f3e
00000220: 116e 74be 560e a2be 621b 8c3e c733 8abe
00000230: e48b bdbc 99b4 16bd 72ec 203e 9fe6 7dbc

encoder.0.bias f4 [16]
-0.48998854 -0.4012352 0.10809681 -0.5665597 -0.48038056 -0.5156367 0.6931748 0.4617618
-0.48640206 -0.096134 0.309992 -0.6858837 0.5056448 0.35350662 -0.097107284 -0.39390996
00000000: c7df fabe b36e cdbe dc61 dd3d 0e0a 11bf
00000010: 71f4 f5be c400 04bf e773 313f 0b6c ec3e
00000020: b109 f9be e7e1 c4bd 45b7 9e3e 1396 2fbf
00000030: f071 013f d2fe b43e 2fe0 c6bd 91ae c9be

rnn.weight_ih_l0 f4 [48, 16]
-0.32768622 -0.14031874 0.17807612 -0.38408455 -0.024499109 0.033240814 0.05966791 -0.010170757
-0.48836285 -0.44783276 0.31042373 -0.016791264 -0.029404854 0.32667285 -0.33442736 -0.25962517
-0.26534268 -0.45482305 0.47733855 -0.34304035 -0.14733464 -0.16212621 0.46794406 0.36511767
-0.105068535 -0.40233466 0.47919586 -0.14438719 0.49321952 0.3572657 -0.4888081 -0.48195338
-0.28260496 -0.17302321 0.25348905 -0.17539318 -0.2734521 -0.17670164 0.10329114 0.3682418
-0.40243345 -0.050184004 0.16835399 -0.102373704 0.45664796 0.4552922 -0.25301793 -0.11013067
-0.15529504 -0.262178 0.14597249 -0.017463403 -0.23274551 -0.27141258 -0.105375454 0.3558547
-0.1722708 0.03548257 0.33351997 -0.066753216 0.31919026 0.29244617 0.080570966 -0.16759388
0.23656462 -0.22537872 -0.0041779387 0.16451265 0.06633185 0.22329208 0.09580981 0.09774299
0.02380838 -0.026483966 0.212954 -0.24073344 0.23081602 0.15085635 -0.18596311 0.11119311
-0.18931787 -0.47498432 0.27507928 -0.46289337 -0.19295049 -0.43744773 0.29751 -0.08033129
-0.43512988 -0.2652507 0.91558444 0.020437336 0.14983892 0.37305805 -0.32236105 -0.42469454
-0.4136049 -0.22931442 0.19377288 -0.09372481 -0.15707234 -0.47428527 0.2186878 0.21898457
-0.38888845 -0.6093752 0.088449374 -0.40593377 0.34094688 0.09196475 -0.39604235 -0.153174
-0.3270988 0.3275204 -0.0012775123 -0.019278547 -0.29462525 0.22985925 0.39526552 -0.08130015
-0.029856136 -0.17687055 -0.18541248 0.0031421606 0.09273057 0.23489381 -0.072774395 0.1516749
-0.20085832 0.03894425 -0.1928412 -1.1454155 0.20747812 -0.04359346 -0.008809613 0.16265108
0.07676162 0.03917139 0.3998098 -0.01842622 0.5173319 -0.040564537 -0.7241829 0.0734868
-0.043575153 0.041328512 0.0781507 -0.23893273 -0.17421298 -0.15470818 0.043240827 0.19728082
-0.4000005 -0.38827032 -0.120056316 -0.03830308 0.10721232 0.37271798 -0.33991584 0.11249129
-0.0356128 -0.29389098 0.30422646 0.0937357 -0.18734871 -0.14393297 -0.14243703 0.21208492
-0.05009042 -0.3091622 0.222727 -0.35063076 0.24827819 0.1413625 -0.28115517 -0.060489196
-0.23193462 0.28103235 -0.32938445 0.087580726 0.10208401 -0.32107106 -0.021397617 0.2278801
0.0015343627 -0.12849674 0.16940416 0.16225575 0.049148344 -0.04969294 -0.27300936 0.2369257
-0.2829805 -0.12944922 0.23780952 -0.045393515 0.06306257 -0.053086374 0.31865224 0.07424317
-0.2920825 -0.021846201 -0.016320415 0.07138538 0.25926828 0.039985776 -0.39864743 -0.031846486
0.11905633 0.14426284 -0.1493899 0.17344314 -0.09206859 0.35738567 -0.25663838 -0.25701624
0.0055884738 0.029181248 -0.13168016 -0.06701592 -0.31446308 0.03967387 -0.14858589 0.2267605
-0.062081046 -0.14586905 0.20911294 -0.40315688 -0.4294627 -0.00971576 0.2476387 0.10671616
-0.4182161 -0.07003878 -0.016417075 -0.15705672 0.39631432 0.11917079 -0.28395608 0.051065292
-0.26651794 -0.22830048 0.41667813 0.08967978 -0.23225941 0.025711523 0.15155086 0.22754054
-0.33998427 -0.26292473 0.07170467 -0.4120328 0.036744628 -0.01509299 -0.138671 -0.07244456
00000000: 7dc6 a7be b7af 0fbe 9659 363e bba6 c4be
00000010: 5bb2 c8bc 8527 083d 5766 743d 3fa3 26bc
00000020: b20a fabe 564a e5be dcef 9e3e d58d 89bc
00000030: 73e2 f0bc aa41 a73e 103a abbe 97ed 84be
00000040: ffda 87be 91de e8be b865 f43e fca2 afbe
00000050: e4de 16be 6a04 26be 5d96 ef3e b4f0 ba3e
00000060: 2c2e d7bd cffe cdbe 2959 f53e 3cda 13be
00000070: 4587 fc3e 88eb b63e 0e45 fabe 98c2 f6be
00000080: 99b1 90be ff2c 31be 51c9 813e 459a 33be
00000090: ea01 8cbe 46f1 34be 4e8a d33d 308a bc3e
000000a0: c20b cebe be8d 4dbd fd64 2c3e 4ea9 d1bd
000000b0: c3cd e93e 0f1c e93e 918b 81be 308c e1bd
000000c0: aa05 1fbe 323c 86be d079 153e 690f 8fbc
000000d0: d754 6ebe 97f6 8abe 16cf d7bd 9632 b63e
000000e0: c267 30be 2c56 113d 21c3 aa3e e9b5 88bd
000000f0: e86c a33e 81bb 953e 6402 a53d bb9d 2bbe
00000100: ff3d 723e aec9 66be 17e7 88bb 0176 283e
00000110: fed8 873d aea6 643e ef37 c43d 7a2d c83d
00000120: cb09 c33c e7f4 d8bc 9d10 5a3e d482 76be
00000130: 095b 6c3e 167a 1a3e 1d6d 3ebe 37b9 e33d
00000140: 8bdc 41be 2531 f3be 31d7 8c3e 5c00 edbe
00000150: d094 45be 26f9 dfbe 3b53 983e bb84 a4bd
00000160: 58c9 debe f1ce 87be be63 6a3f 336c a73c
00000170: 606f 193e 7701 bf3e 820c a5be 9071 d9be
00000180: 05c4 d3be 66d1 6abe 666c 463e cbf2 bfbd
00000190: 92d7 20be 85d5 f2be b2ef 5f3e 7e3d 603e
000001a0: 631c c7be 0300 1cbf f224 b53d 8dd6 cfbe
000001b0: 9790 ae3e 0458 bc3d 10c6 cabe a5d9 1cbe
000001c0: 7e79 a7be c1b0 a73e 3372 a7ba 0bee 9dbc
000001d0: 1fd9 96be 3960 6b3e 3e60 ca3e b180 a6bd
000001e0: db94 f4bc 8e1d 35be c5dc 3dbe b5ec 4d3b
000001f0: 86e9 bd3d 0188 703e be0a 95bd aa50 1b3e
00000200: cead 4dbe 0284 1f3d 2a78 45be fa9c 92bf
00000210: 2575 543e 0e8f 32bd 3256 10bc 018e 263e
00000220: 3235 9d3d 2e72 203d dfb3 cc3e 96f2 96bc
00000230: dd6f 043f 0027 26bd 0d64 39bf 3f80 963d
00000240: dc7b 32bd 1648 293d 790d a03d c8aa 74be
00000250: e364 32be d26b 1ebe 4b1d 313d fc03 4a3e
00000260: decc ccbe 5ecb c6be 16e0 f5bd b1e3 1cbd
00000270: 2292 db3d e4d4 be3e 7309 aebe d561 e63d
00000280: bade 11bd e178 96be 92c3 9b3e 81f8 bf3d
00000290: 57d8 3fbe 2a63 13be 03db 11be ca2c 593e
000002a0: 9d2b 4dbd 824a 9ebe 8c12 643e e085 b3be
000002b0: a33c 7e3e 55c1 103e 92f3 8fbe 85c3 77bd
000002c0: 4580 6dbe 79e3 8f3e 14a5 a8be 865d b33d
000002d0: 6c11 d13d 6d63 a4be 0e4a afbc 6759 693e
000002e0: ab1c c93a a694 03be 4978 2d3e 5f26 263e
000002f0: c64f 493d d38a 4bbd e2c7 8bbe a79c 723e
00000300: d2e2 90be 568e 04be 5784 733e 8dee 39bd
00000310: f326 813d 1971 59bd 6326 a33e ce0c 983d
00000320: d68b 95be cef6 b2bc 64b2 85bc 8032 923d
00000330: d0be 843e 20c8 233d 841b ccbe 7671 02bd
00000340: ced3 f33d a3b9 133e aaf9 18be 149b 313e
00000350: 758e bcbd 41fb b63e 1b66 83be a297 83be
00000360: 841f b73b 830d ef3c 2ad7 06be a53f 89bd
00000370: 4e01 a1be 1181 223d e626 18be e833 683e
00000380: b248 7ebd b25e 15be b421 563e 946a cebe
00000390: 89e2 dbbe da2e 1fbc 0095 7d3e 018e da3d
000003a0: 6c20 d6be 7e70 8fbd 1a7d 86bc 7ad3 20be
000003b0: b6e9 ca3e d10f f43d b162 91be d729 513d
000003c0: 0a75 88be 9ac7 69be d656 d53e 08aa b73d
000003d0: 69d5 6dbe f9a0 d23c 2630 1b3e 6300 693e
000003e0: 6b12 aebe 129e 86be e6d9 923d f7f5 d2be
000003f0: 8981 163d 9748 77bc c5ff 0dbe d05d 94bd

rnn.weight_hh_l0 f4 [48, 16]
0.45562086 -0.21465537 -0.31207126 -0.20031254 0.09876257 -0.07725931 0.08974647 0.02748928
0.3408741 0.08973846 -0.12908487 -0.2004156 -0.33211392 -0.10668092 0.17203502 0.0019891886
0.45835292 -0.4099702 -0.4252778 -0.1277913 0.20059116 -0.19325943 0.34791198 0.23319319
0.3445716 0.23888819 -0.15473665 -0.20987472 -0.14684242 -0.12272172 0.40123442 -0.0012824532
0.49570692 -0.39711246 -0.27526093 -0.5770106 0.09053006 -0.32653168 0.29420558 -0.20322643
0.164256 0.33352572 0.043779 0.16607079 -0.28374127 -0.24771222 0.25049552 0.09865655
0.4114946 -0.11259193 -0.49978513 -0.44820836 0.4722906 -0.0724529 0.49512982 -0.09400928
0.3438024 0.0543318 -0.3524387 -0.052035216 -0.21936044 -0.08191944 0.5635565 0.21925884
0.17480312 -0.22601907 -1.1002876 -0.5039067 -0.3269595 -0.072899684 0.10394951 0.31086558
0.30007112 0.1881245 0.042453505 1.685647 -0.21316123 -0.4783802 0.2147515 -0.3517963
0.015842825 -0.35640988 0.07376455 -0.07252553 0.62188905 0.004165477 0.13474694 -0.21054633
0.086720444 0.13018058 0.031153984 -0.08733722 -0.06186639 -0.10855102 0.22261831 -0.01997707
0.20380782 -0.23475572 -0.05938483 -0.23461573 0.5632273 -0.36596322 0.2125796 -0.045215026
0.70247406 0.039870974 -0.13359487 -0.09756445 -0.095277116 -0.022566129 0.18334572 0.0887798
-0.085504845 -0.096998915 -1.0957332 -0.59189534 -0.022945313 0.015960885 0.026308449 0.37397113
0.0053655948 -0.09821836 0.1936429 1.6079115 -0.22415183 -0.7010795 0.064151086 0.30329722
-0.19421232 -0.05289262 -0.8676732 -0.24495907 -0.23804386 0.35452086 -0.12336826 0.26141906
-0.1228928 -0.30958652 0.32259414 0.39232215 0.20863327 0.015833512 -0.28400514 0.016478179
0.15586872 -0.17472197 -0.21049987 0.043674503 0.090082675 -0.3766521 0.36858377 0.24880089
-0.042682648 0.13325594 0.085548095 0.16128694 0.06538645 -0.35011652 0.17113154 -0.2617516
0.30077943 -0.22961193 -1.0295591 -0.9652841 -0.3319012 -0.2131546 0.41557464 0.39816263
0.13790977 0.22529797 0.15398048 0.99133056 -0.3509616 -0.52975255 0.2327631 0.0077680224
0.024141684 0.025537934 -2.007487 -0.6523498 -0.10740179 -0.39925155 0.1391006 -0.13377373
0.35358548 0.10448876 -0.2765107 0.2935667 -0.09226724 -0.3441531 0.38366404 0.48362637
0.21184063 -0.38102555 -0.25348738 -0.103456356 0.07389469 -0.5605047 0.5301389 0.0067085116
0.18910392 0.19500986 -0.06904951 -0.22392035 -0.6285554 -0.024552692 0.39937085 -0.087833785
0.0066500995 0.07069763 -0.9294673 0.051015344 -0.6119451 0.052424584 -0.080321185 0.17336978
0.0076567614 -0.09878637 -0.036036063 1.1051457 0.09060863 -0.57606024 0.042135037 -0.30252934
0.2207055 -0.185384 -0.24214232 -0.35930416 0.1879084 0.24284871 0.10866869 0.040157825
0.011753703 -0.26596925 0.27340642 0.41210532 -0.27709082 -0.23152943 -0.018074177 -0.04138377
0.37092507 -0.34367168 -1.4600537 -0.7772071 -0.0016641052 -0.04603422 0.01798752 0.4674696
0.2626156 0.06596951 -0.019878736 1.2315122 -0.43936825 -0.65302604 0.031274367 -0.0050955373
00000000: 2347 e93e 9ece 5bbe cec7 9fbe bb1e 4dbe
00000010: 0844 ca3d 213a 9ebd ffcc b73d 3331 e13c
00000020: 0d87 ae3e ccc8 b73d d32e 04be bf39 4dbe
00000030: d60a aabe 877b dabd f329 303e 0c5d 023b
00000040: 3cad ea3e 9de7 d1be 03be d9be b9db 02be
00000050: c567 4d3e cde5 45be 8521 b23e 32ca 6e3e
00000060: b06b b03e 1b9f 743e 4973 1ebe 66e9 56be
00000070: dc5d 16be 8655 fbbd 996e cd3e fd17 a8ba
00000080: 4ccd fd3e 5352 cbbe 00ef 8cbe f7b6 13bf
00000090: d367 b93d 292f a7be 1da2 963e 971a 50be
000000a0: ba32 283e e2c3 aa3e 9c51 333d 760e 2a3e
000000b0: 8946 91be 46a8 7dbe f340 803e 720c ca3d
000000c0: 6caf d23e 9996 e6bd d6e3 ffbe 917b e5be
000000d0: 13d0 f13e 3062 94bd a881 fd3e f087 c0bd
000000e0: de06 b03e 068b 5e3d d872 b4be e122 55bd
000000f0: 06a0 60be 61c5 a7bd 3d45 103f 6485 603e
00000100: 97ff 323e 8b71 67be 39d6 8cbf 0800 01bf
00000110: 3c67 a7be 6e4c 95bd 7be3 d43d c629 9f3e
00000120: eca2 993e b5a3 403e bae3 2d3d 48c3 d73f
00000130: f046 5abe 40ee f4be d1e7 5b3e a51e b4be
00000140: d0c8 813c 5b7b b6be de11 973d 4488 94bd
00000150: 1f34 1f3f 8e7e 883b 1afb 093e 7599 57be
00000160: 7d9a b13d 0f4e 053e a436 ff3c dbdd b2bd
00000170: 9d67 7dbd ff4f debd 0ef6 633e f4a6 a3bc
00000180: ffb2 503e ce63 70be 823d 73bd 1b3f 70be
00000190: aa2f 103f 885f bbbe 77ae 593e 6433 39bd
000001a0: 57d5 333f bf4f 233d 18cd 08be dfcf c7bd
000001b0: a620 c3bd 9adc b8bc fbbe 3b3e 2fd2 b53d
000001c0: 2a1d afbd 5ea7 c6bd fc40 8cbf 7486 17bf
000001d0: cff7 bbbc 67c0 823c d184 d73c 2579 bf3e
000001e0: dfd1 af3b b526 c9bd 534a 463e 0bd0 cd3f
000001f0: 0f88 65be f279 33bf a561 833d c649 9b3e
00000200: 98df 46be efa5 58bd d51f 5ebf 8dd6 7abe
00000210: c5c1 73be c283 b53e 80a8 fcbd b8d8 853e
00000220: 38af fbbd 2082 9ebe 0f2b a53e 73de c83e
00000230: f6a3 553e 48b5 813c 1f69 91be 3ffd 863c
00000240: 0d9c 1f3e 51ea 32be 478d 57be 09e4 323d
00000250: 447d b83d 8bd8 c0be 03b7 bc3e a9c5 7e3e
00000260: 00d4 2ebd 3f74 083e d733 af3d 6728 253e
00000270: 55e9 853d 7942 b3be 1b3d 2f3e 4e04 86be
00000280: c3ff 993e 641f 6bbe 98c8 83bf dc1c 77bf
00000290: f4ee a9be 3345 5abe 33c6 d43e f9db cb3e
000002a0: 3838 0d3e 83b4 663e 0fad 1d3e d7c7 7d3f
000002b0: 3db1 b3be dd9d 07bf 7359 6e3e e58a fe3b
000002c0: c8c4 c53c ee34 d13c ab7a 00c0 6600 27bf
000002d0: 78f5 dbbd b36a ccbe 6370 0e3e fbfb 08be
000002e0: 2809 b53e 34fe d53d cf92 8dbe 604e 963e
000002f0: 9bf6 bcbd d634 b0be 9d6f c43e e09d f73e
00000300: c0ec 583e c815 c3be 19c9 81be ede0 d3bd
00000310: 1956 973d 3c7d 0fbf 2fb7 073f 13d3 db3b
00000320: 75a4 413e aab0 473e d469 8dbd 604b 65be
00000330: 02e9 20bf ba22 c9bc 567a cc3e 33e2 b3bd
00000340: 14e9 d93b ebc9 903d 92f1 6dbf 77f5 503d
00000350: 6fa8 1cbf 29bb 563d 6f7f a4bd d987 313e
00000360: 92e5 fa3b 8250 cabd 8d9a 13bd 6a75 8d3f
00000370: 0491 b93d af78 13bf ca95 2c3d 20e5 9abe
00000380: 9f00 623e 4ed5 3dbe 28f4 77be b7f6 b7be
00000390: 0f6b 403e 55ad 783e b18d de3d 887c 243d
000003a0: 9a92 403c 1f2d 88be edfb 8b3e 78ff d23e
000003b0: d9de 8dbe 0d16 6dbe 4c10 94bc 0782 29bd
000003c0: e4e9 bd3e bcf5 afbe 0ae3 babf 0bf7 46bf
000003d0: 1b1e daba 618e 3cbd 905a 933c 2d58 ef3e
000003e0: 8d75 863e 061b 873d bbd8 a2bc 31a2 9d3f
000003f0: e0f4 e0be b72c 27bf 8d19 003d 77f8 a6bb

rnn.bias_ih_l0 f4 [48]
0.41790795 0.39992404 0.2804072 0.3920046 -0.14884384 0.31552982 0.32616645 0.1829501
-0.2643517 0.052141532 -0.12433202 0.28439185 0.009391538 -0.35377273 0.35136685 0.030877963
-0.11024775 -0.46628493 -0.2700604 0.19962373 -0.1514587 -0.061080694 -0.0906901 -0.39009827
0.042892866 -0.071846 -0.37819296 -0.35071638 -0.28043783 0.12685038 -0.34336808 -0.022384014
-0.0066483957 -0.10758674 0.14082095 0.17015795 0.10359465 -0.048287597 0.15238394 0.15090108
0.13024658 0.04939301 -0.039419573 -0.26821882 -0.2628099 -0.0570763 0.18353291 -0.03376153
00000000: 08f8 d53e d8c2 cc3e 8891 8f3e d4b4 c83e
00000010: 856a 18be 208d a13e 4aff a63e 4557 3b3e
00000020: 1b59 87be 5c92 553d c9a1 febd cf9b 913e
00000030: f7de 193c b321 b5be 5be6 b33e c8f3 fc3c
00000040: 93c9 e1bd e6bc eebe 5b45 8abe 2a6a 4c3e
00000050: fd17 1bbe c02f 7abd bbbb b9bd f6ba c7be
00000060: 6eb0 2f3d ff23 93bd 82a2 c1be 1991 b3be
00000070: 8c95 8fbe 11e5 013e f1cd afbe ae5e b7bc
00000080: c9da d9bb 7056 dcbd 5e33 103e e33d 2e3e
00000090: 6f29 d43d 37c9 45bd 890a 1c3e d085 1a3e
000000a0: 5c5f 053e 5350 4a3d 6b76 21bd fa53 89be
000000b0: 058f 86be d7c8 69bd 0df0 3b3e 8849 0abd

rnn.bias_hh_l0 f4 [48]
0.04072337 0.39856195 0.34821022 -0.02243093 -0.16518451 -0.04410537 0.33010042 0.3096436
0.17555808 0.47011933 -0.080298185 0.05543388 0.023110643 -0.22057666 0.092974454 0.028386846
-0.28378856 -0.13352914 -0.2656706 0.12361316 0.07928858 -0.14276989 -0.20749158 -0.21545976
0.094922885 -0.3470926 -0.38411787 -0.0038150148 -0.147126 0.04088075 -0.50093025 -0.3540374
0.36210483 -0.39527842 0.09689569 -0.1774129 -0.08437201 -0.1834266 0.33542135 0.40518022
0.048316382 0.37810132 -0.18174258 0.095498875 -0.0373733 0.010654875 0.49758783 -0.08235116
00000000: 8ccd 263d 5010 cc3e 9c48 b23e 12c1 b7bc
00000010: 2126 29be d5a7 34bd ec02 a93e 9b89 9e3e
00000020: 7fc5 333e 7bb3 f03e 6073 a4bd a30e 633d
00000030: 8852 bd3c d9de 61be 6469 be3d 888b e83c
00000040: bc4c 91be ddbb 08be fa05 88be e528 fd3d
00000050: 0d62 a23d 4532 12be ac78 54be 7ca1 5cbe
00000060: ee66 c23d 1fb6 b1be 19ab c4be 5405 7abb
00000070: 33a8 16be 9372 273d f73c 00bf 6444 b5be
00000080: ce65 b93e ef61 cabe 3f71 c63d baab 35be
00000090: 3bcb acbd 2fd4 3bbe 59bc ab3e c873 cf3e
000000a0: 66e7 453d 7f96 c13e ba1a 3abe ea94 c33d
000000b0: bf14 19bd c991 2e3c d5c3 fe3e baa7 a8bd

output_layer.weight f4 [6, 16]
6.8110585 -6.7637086 -6.693101 -6.76981 -5.4097853 -6.861071 7.280501 6.747241
5.3075504 6.7134576 7.128774 6.7951202 -6.852667 -6.7532134 6.5832534 -6.831889
0.2961816 -0.5011918 -0.37934083 -0.7894138 1.0122441 -0.022646848 1.2153099 0.16933149
0.9581446 0.65416586 0.75375736 0.69703126 -0.3406954 -1.3942784 0.47393027 -0.5530599
1.2964957 -1.1078669 -1.2785575 -1.1744522 3.6860635 0.22985147 1.6731663 0.9800914
-1.0112475 1.0396262 1.4843602 0.8062662 -1.1217701 0.56571174 1.2940632 -1.088894
-0.0010898552 0.30172122 0.21092281 0.013438376 2.3216147 -0.06269772 0.056701336 0.12786461
3.227904 -0.23880006 -0.15617178 0.1261308 0.17183547 -1.4602076 -0.28278816 0.17351589
-0.8754778 0.65955293 0.7694157 0.7112231 6.8724146 0.39137474 -0.35138395 -0.6552539
-0.03797438 -0.58291984 -0.5319059 -0.7435644 0.6705459 1.9535253 -0.49928537 0.76278377
-0.13892493 0.04032605 -0.028790936 0.16907647 2.4105692 -0.38655302 0.13824658 -0.23843315
5.2891984 -0.33984005 -0.08598015 -0.049356654 0.1920153 1.320883 -0.4031752 -0.077756315
00000000: 31f4 d940 4d70 d8c0 e22d d6c0 49a2 d8c0
00000010: f61c adc0 e58d dbc0 ddf9 e840 66e9 d740
00000020: 74d7 a940 a5d4 d640 eb1e e440 a071 d940
00000030: 0c49 dbc0 531a d8c0 03aa d240 d69e dac0
00000040: 1da5 973e 1b4e 00bf f638 c2be 0617 4abf
00000050: 3791 813f e285 b9bc 468f 9b3f 3c65 2d3e
00000060: f748 753f 6a77 273f 3ef6 403f a470 323f
00000070: a16f aebe b777 b2bf fda6 f23e 5595 0dbf
00000080: 92f3 a53f 95ce 8dbf c6a7 a3bf 7354 96bf
00000090: 77e8 6b40 2f5e 6b3e 502a d63f 45e7 7a3f
000000a0: 8f70 81bf 7912 853f 84ff bd3f 7667 4e3f
000000b0: 2a96 8fbf 7cd2 103f dda3 a53f e160 8bbf
000000c0: 79d9 8eba 347b 9a3e 26fc 573e a22c 5c3c
000000d0: 5695 1440 aa67 80bd a93f 683d f1ee 023e
000000e0: fb95 4e40 0188 74be 7feb 1fbe 6f28 013e
000000f0: a3f5 2f3e 15e8 babf 9cc9 90be 26ae 313e
00000100: 501f 60bf 76d8 283f 6df8 443f b812 363f
00000110: d2ea db40 4562 c83e 99e8 b3be b8be 27bf
00000120: 068b 1bbd 3c3a 15bf fc2a 08bf 3d5a 3ebf
00000130: e5a8 2b3f 1e0d fa3f 55a2 ffbe cc45 433f
00000140: 5642 0ebe ee2c 253d f8da ebbc 6222 2d3e
00000150: c446 1a40 47ea c5be 8390 0d3e d227 74be
00000160: 1d41 a940 84ff adbe 5c16 b0bd 342a 4abd
00000170: a99f 443e b212 a93f fb6c cebe b43e 9fbd

output_layer.bias f4 [6]
6.5843697 0.39045775 1.168329 -0.1944823 -0.6616468 -0.2855067
00000000: 28b3 d240 14ea c73e ce8b 953f 5e26 47be
00000010: af61 29bf ef2d 92be
