ch4. deep learning (RNN)/models/HDV_predictor.pt (torch_old, 8743 bytes, 8 tensors)

encoder.0.weight f4 [16, 6]
0.0073312656 0.9580664 -0.29334244 -0.48001426 0.793331 -0.12003183 0.14976174 0.68544114
-0.8584719 0.2884772 -0.28669894 0.2308529 0.14860779 -0.37187228 0.14888549 0.31720164
0.18511117 0.12142201 -0.26405805 -0.22566202 0.18690711 -0.21281442 0.2805701 0.03722155
0.22462586 -0.07066374 -0.32227883 -0.68651235 0.5432945 -0.40356612 0.29141185 0.22347143
-0.20836152 0.377609 0.3687152 -0.19936647 -0.29549047 0.23204735 -0.1462073 0.45298433
0.38604262 0.05885065 0.015267088 0.40767848 -1.0792512 1.0177218 -0.074612625 0.78020597
0.148127 -0.07662475 0.45065627 -0.08699827 0.14500676 0.116065644 -0.21736993 0.15174207
-0.32355076 0.033154912 0.01051184 0.09528103 -0.276916 -0.017938316 -0.19911228 0.1497562
0.0024345517 0.015897602 0.25210863 -0.10216667 0.19964755 0.67336386 -0.31219733 -0.5776228
-0.0011457199 0.32655752 -0.2880582 -0.5085936 -0.10642076 -0.624384 0.16842842 -0.20693593
-0.5013297 -0.5960787 -0.3185102 -0.32649446 -0.25992543 -0.10356301 -0.093562335 0.14692163
0.14271432 -0.15228793 -0.069300294 0.677617 0.174516 -0.5631094 -0.04782067 0.044319853
00000000: 1d3b f03b d743 753f fb30 96be 6ec4 f5be
00000010: be17 4b3f 40d3 f5bd 245b 193e 1279 2f3f
00000020: d0c4 5bbf 49b3 933e 34ca 92be b464 6c3e
00000030: a42c 183e 0b66 bebe 7075 183e 4168 a23e
00000040: c88d 3d3e 1aac f83d 9e32 87be f213 67be
00000050: 9464 3f3e 06ec 59be e2a6 8f3e a075 183d
00000060: 5204 663e 27b8 90bd bb01 a5be 46bf 2fbf
00000070: 5915 0b3f 38a0 cebe ef33 953e b2d5 643e
00000080: b95c 55be f855 c13e 3dc8 bc3e b926 4cbe
00000090: 874a 97be d29d 6d3e 5eb7 15be 90ed e73e
000000a0: 61a7 c53e 610d 713d cf22 7a3c 3cbb d03e
000000b0: e724 8abf b544 823f 81ce 98bd 94bb 473f
000000c0: 9bae 173e 70ed 9cbd 6bbc e63e 262c b2bd
000000d0: a77c 143e d3b3 ed3d 3996 5ebe 4662 1b3e
000000e0: 72a8 a5be 72cd 073d da39 2c3c b322 c33d
000000f0: efc7 8dbe 60f3 92bc 17e4 4bbe b059 193e
00000100: 008d 1f3b b03b 823c 6214 813e c23c d1bd
00000110: 6870 4c3e 9361 2c3f 54d8 9fbe 16df 13bf
00000120: fb2b 96ba 8c32 a73e 5d7c 93be 3133 02bf
00000130: 21f3 d9bd a1d7 1fbf 8078 2c3e 03e7 53be
00000140: 2557 00bf 9d98 18bf c513 a3be 482a a7be
00000150: f214 85be d818 d4bd 9c9d bfbd a072 163e
00000160: b423 123e 5ef1 1bbe 50ed 8dbd 4f78 2d3f
00000170: 53b4 323e f027 10bf 9bdf 43bd bc88 353d

encoder.0.bias f4 [16]
-0.13495192 -0.2373366 -0.26465088 -0.5483182 0.0006027767 0.15782012 -0.1970506 0.089122355
0.2855128 -0.19876519 0.44859964 0.14002532 0.0013257856 -0.2879216 -0.063474156 0.19803166
00000000: d630 0abe 5e08 73be 5280 87be 955e 0cbf
00000010: a903 1e3a 999b 213e a2c7 49be c885 b63d
00000020: bc2e 923e 1a89 4bbe daae e53e cc62 0f3e
00000030: fcc5 ad3a 766a 93be bdfe 81bd d0c8 4a3e

rnn.weight_ih_l0 f4 [48, 16]
-0.027194701 0.44978896 0.25613314 0.33054575 -0.52240855 -0.12298046 0.40339515 2.2857459
-0.404394 0.13187541 -0.1019259 -0.09336867 -0.12033404 0.0033273625 0.008991331 -0.19380458
0.18958983 0.6299595 0.6973787 0.09046727 -0.37525296 -0.35516024 0.45401827 -0.93896097
0.11633755 0.4801865 -0.5432803 -0.1810727 -1.2097552 -0.22355051 0.0068694525 -0.24639475
-0.42069337 -0.15192129 0.14471199 -0.027604295 -0.1743545 0.29193023 -0.1788349 -0.19494277
0.40935415 -0.07202008 0.37035784 0.42059088 -0.10621948 -0.26904914 -0.3561899 0.36684525
-0.26465994 -0.13628952 0.17207326 -0.11918477 0.1791975 0.218242 -0.37389624 -0.05158512
0.36461157 -0.3011015 0.1616257 0.29179147 0.05807363 -0.114610374 -0.40172774 0.21200024
-0.56120336 -0.16061457 -0.20281309 -0.49448526 0.9860064 0.544096 -0.60555446 -0.24492148
0.52816397 -0.3760551 0.38676494 0.26713288 -0.39429078 -0.3790052 -0.30528945 0.34107295
-0.8527723 -0.18916377 0.6606047 0.17898507 -0.3863936 -0.08437416 0.21989687 -0.122676276
0.21732995 0.030930491 0.19147699 -0.3970344 -1.22986 -0.13198985 0.29655248 -0.37308183
-0.021009339 -0.14918555 0.38760364 0.16031699 0.3960719 -0.12753837 0.022907376 0.20588228
0.038067672 0.24358542 -0.117212325 0.2450794 0.18235597 -0.099366195 0.24199748 0.19064453
-0.23855549 -0.428745 -0.03991405 -0.32025272 -0.30088362 0.13526338 -0.34966752 -0.22466113
0.3792207 -0.268936 0.36226946 0.15318012 0.10957657 -0.07914839 -0.46667063 0.18375283
-0.23333327 -0.36691347 0.06636571 -0.29582596 0.15373503 0.48227143 -0.09594674 0.058925014
0.22753122 -0.29626873 0.40803182 0.082196176 -0.10850407 -0.29392952 -0.26698986 0.4307073
-0.2915705 0.020091813 -0.10010311 -0.37819305 -0.37298307 0.27657968 -0.31295672 -0.097651064
-0.043979954 -0.006646658 -0.04399696 0.23362766 0.09811976 0.12746167 -0.4411384 0.32596236
-0.10020456 -0.052975215 0.12331509 -0.060430795 0.53373295 -0.15302092 -0.1094169 -0.020587232
-0.099870145 -0.065522216 -0.017064197 0.26658285 0.12242005 -0.23534292 0.18995535 -0.258972
-0.1573166 -0.057801384 -0.11120287 -0.37261954 0.29134583 0.4264687 -0.29944474 -0.31377628
0.38786614 -0.120652825 0.2898903 0.20912054 -0.2851005 -0.25426316 -0.16513795 0.10524253
-0.037375625 0.18735477 -0.12157918 0.09743009 -0.33823213 -0.26278564 -0.073313855 -0.21055807
-0.00392936 -0.05938435 -0.19041803 -0.4177511 0.13286668 0.05769117 -0.19050406 -0.10048349
0.3010377 -0.10957727 0.072894625 0.23022047 0.0608458 -0.4592992 0.3670413 0.006132873
-0.060768086 0.06796353 -0.05445477 -0.25587568 0.13527963 0.1255085 -0.06942826 0.24247701
0.0019744372 0.0660565 -0.17635138 -0.13786508 -0.09889458 0.30999205 -0.4631766 -0.27391744
0.3131544 -0.15651347 0.11809166 -0.0601814 0.02029905 -0.17082597 -0.3904134 0.1054812
0.114873804 -0.1340149 -0.05117176 0.36481044 -0.37847328 -0.21934815 0.45210359 0.15115938
-0.14968996 0.11494714 -0.37431753 -0.24043493 0.21806222 0.28158185 0.27876148 -0.34048012
00000000: 6cc7 debc bd4a e63e e223 833e 4b3d a93e
00000010: 91bc 05bf 2edd fbbd cf89 ce3e a949 1240
00000020: bb0c cfbe 590a 073e 87be d0bd 1338 bfbd
00000030: b171 f6bd e10f 5a3b 6050 133c b574 46be
00000040: d623 423e 0745 213f 6987 323f e746 b93d
00000050: 2821 c0be 90d7 b5be 1575 e83e bf5f 70bf
00000060: 6242 ee3d 01db f53e 6b14 0bbf 1f6b 39be
00000070: 42d9 9abf 6dea 64be 2519 e13b e84e 7cbe
00000080: 1f65 d7be 4191 1bbe 612f 143e 6722 e2bc
00000090: fc89 32be e177 953e 7f20 37be 149f 47be
000000a0: de96 d13e 447f 93bd 8b9f bd3e b057 d73e
000000b0: 9989 d9bd cfc0 89be 865e b6be 24d3 bb3e
000000c0: 8281 87be 7b8f 0bbe f933 303e 2517 f4bd
000000d0: 8d7f 373e d57a 5f3e 546f bfbe eb4a 53bd
000000e0: 5eae ba3e fa29 9abe 3581 253e b165 953e
000000f0: 9dde 6d3d d8b8 eabd 42af cdbe 9716 593e
00000100: 06ab 0fbf 2578 24be 3cae 4fbe 2c2d fdbe
00000110: ea6a 7c3f e049 0b3f 9e05 1bbf b2cc 7abe
00000120: c135 073f 4b8a c0be 0e06 c63e a4c5 883e
00000130: 7be0 c9be f80c c2be e64e 9cbe 1da1 ae3e
00000140: 494f 5abf 26b4 41be 641d 293f dd47 373e
00000150: 62d5 c5be 5ccc acbd a52c 613e b33d fbbd
00000160: be8b 5e3e f161 fd3c 8b12 443e 1848 cbbe
00000170: 0d6c 9dbf 5928 07be bad5 973e 9504 bfbe
00000180: c71b acbc 19c4 18be fc73 c63e 232a 243e
00000190: f0c9 ca3e 6b99 02be 40a8 bb3c ced2 523e
000001a0: d9ec 1b3d 756e 793e 040d f0bd 18f6 7a3e
000001b0: 86bb 3a3e 8180 cbbd 30ce 773e 5238 433e
000001c0: e447 74be 7784 dbbe ea7c 23bd 2af8 a3be
000001d0: 6b0d 9abe 7c82 0a3e 9f07 b3be 910d 66be
000001e0: 3729 c23e fbb1 89be 627b b93e 40db 1c3e
000001f0: ae69 e03d 8d18 a2bd 74ef eebe b429 3c3e
00000200: ebee 6ebe 15dc bbbe bfea 873d 8076 97be
00000210: b76c 1d3e 48ec f63e b97f c4bd 5b5b 713d
00000220: f2fd 683e 89b0 97be 8ce9 d03e 7856 a83d
00000230: 6237 debd ee7d 96be e5b2 88be ab85 dc3e
00000240: bb48 95be 9697 a43c dc02 cdbd 85a2 c1be
00000250: a3f7 bebe da9b 8d3e dd3b a0be 48fd c7bd
00000260: 5324 34bd 35cc d9bb 2836 34bd 173c 6f3e
00000270: 03f3 c83d 5085 023e e4dc e1be 8ae4 a63e
00000280: 0c38 cdbd 8afc 58bd 9f8c fc3d 4886 77bd
00000290: b9a2 083f 84b1 1cbe f815 e0bd 8ea6 a8bc
000002a0: b888 ccbd 8330 86bd 37ca 8bbc 8c7d 883e
000002b0: 5db7 fa3d bcfd 70be a883 423e fa97 84be
000002c0: 9a17 21be 25c1 6cbd 55be e3bd fdc7 bebe
000002d0: 482b 953e 1b5a da3e d250 99be 49a7 a0be
000002e0: 6496 c63e d418 f7bd 806c 943e b223 563e
000002f0: b1f8 91be c82e 82be ec19 29be 6589 d73d
00000300: 2f17 19bd eed9 3f3e 81fe f8bd 6d89 c73d
00000310: c32c adbe d78b 86be 9325 96bd 899c 57be
00000320: dcc1 80bb 013d 73bd f2fc 42be 79e3 d5be
00000330: 340e 083e 944d 6c3d 7f13 43be 4aca cdbd
00000340: 9d21 9a3e 0c6a e0bd c749 953d eabe 6b3e
00000350: 7239 793d 4429 ebbe d6ec bb3e 44f6 c83b
00000360: f5e7 78bd 7730 8b3d f70b 5fbd 2302 83be
00000370: be86 0a3e 4d85 003e 6730 8ebd e54b 783e
00000380: 8f65 013b a148 873d 7595 34be 812c 0dbe
00000390: 3e89 cabd 47b7 9e3e 7c25 edbe e83e 8cbe
000003a0: c655 a03e 1145 20be 0ada f13d c680 76bd
000003b0: 314a a63c 01ed 2ebe 44e4 c7be 8706 d83d
000003c0: f542 eb3d 343b 09be 7b99 51bd 6fc8 ba3e
000003d0: 40c7 c1be cd9c 60be 1f7a e73e 86c9 1a3e
000003e0: 5348 19be 6869 eb3d 8ca6 bfbe 9334 76be
000003f0: b44b 5f3e 7f2b 903e d3b9 8e3e 6953 aebe

rnn.weight_hh_l0 f4 [48, 16]
1.3440144 -0.26738378 0.141809 0.1331833 -0.35212153 0.26973197 0.11093358 -0.13556948
0.2632965 0.16616222 0.15228963 0.9810473 -0.6907156 0.36930647 0.005100736 -1.1772773
0.5624786 -1.267026 -0.1862616 0.1533912 -0.12586586 0.39508957 -0.0028877938 0.2179731
-0.64082325 0.20639144 0.094980374 0.38012925 -1.1558123 -0.35205433 0.13431486 0.09239966
0.16507347 0.00048083905 0.48887804 -0.37000722 0.18310253 -0.22974284 -0.07730684 -0.5165529
0.24310862 -0.3927188 0.39473978 0.07042123 -0.17663579 -0.46109733 -0.17150281 0.23104635
-0.3673461 -0.0756145 0.59537446 -0.6582654 0.5271755 -0.06738395 0.15339077 -0.4476062
0.22987984 -0.4826019 -0.20517075 -0.16133958 -0.13818225 -0.64594936 -0.38319227 0.4657468
0.79481953 0.45233917 0.38648108 -0.45232916 0.10449668 0.12379349 0.15125133 -0.41246006
0.14938974 -0.23829554 0.12812166 0.9293668 -0.6434067 -0.5156193 -0.3236923 -0.3438148
0.50382924 -0.08128418 0.070630156 -0.061307248 0.066652216 0.91187274 0.27736518 0.04867874
0.1682669 -0.08631865 -0.8853727 0.6611302 -0.55103755 -0.3773412 -0.18105613 -0.95359725
1.0681511 0.2875388 0.06086597 0.04749074 -0.6199813 0.09975069 0.28836837 -0.36279207
0.40360495 -0.10855822 -0.1843048 1.9001637 -1.9265581 -0.21515802 -0.5048099 -1.4053423
0.066789925 -0.12728065 0.24867173 -0.6176916 0.30236474 -0.30032098 0.13637489 -0.58748466
0.43228188 -0.33331108 -0.080302685 0.10622999 -0.12024054 -0.25593314 -0.24276324 0.2991589
-0.051078714 -0.10275009 0.4652588 -0.40312126 0.19598338 -0.4211849 0.21716896 -0.45897606
0.34689692 -0.30469334 0.19535868 -0.13973488 -0.13158269 -0.25843444 -0.72793186 0.52912325
0.23663323 0.11252995 0.19967945 0.12411612 -0.48976117 0.26363012 -0.0016204707 -0.2571512
0.07734845 -0.18456106 0.20140815 0.032483794 -0.5744729 -0.22816388 0.19981931 -0.28776696
0.63375473 0.7226269 0.19414294 -0.13320452 -0.13386856 0.5746381 0.40860662 0.004678772
0.0014176824 -0.15372661 -0.19856486 0.46541336 -1.0984944 -0.235015 0.10746434 -0.92959666
0.031182067 -0.07297564 0.16883357 -0.2693514 -0.10607966 -0.111701414 -0.15871552 -0.5736243
0.42390573 -0.21102399 0.39819852 0.7108592 -0.24875237 -0.25739884 -0.34460694 -0.24976605
0.122302145 -0.30461892 0.1333152 -0.20651414 -0.7888081 -0.16060342 -0.15652485 -0.05251349
0.4277048 -0.027426085 0.19665256 1.4994771 -0.19165252 0.056521453 -0.38717803 -1.3397661
0.65086454 -0.19974555 -0.21314143 0.024204845 -1.7147453 0.1814768 -0.044781175 -0.059659235
0.17976189 -0.15103194 0.45297134 0.78054315 -1.2107381 -0.082103804 0.04908775 -0.64957273
-0.47573406 0.3747981 0.46907237 -0.8014079 0.33790317 -0.49424285 0.19448948 -0.77543473
0.5432913 -0.7063834 -0.2787703 -0.26460674 0.0014584542 -0.47924885 -0.45051187 0.24509595
0.122569166 -0.109139584 -0.24630189 -0.11920319 -0.47808272 -0.00037717485 -0.24019255 0.011441111
0.4965411 0.30162957 0.34089798 0.83170855 -0.52620864 -0.17057054 -0.20349872 -0.7541285
00000000: aa08 ac3f 87e6 88be 6136 113e 3461 083e
00000010: 4649 b4be 4f1a 8a3e 2531 e33d bad2 0abe
00000020: cdce 863e 6e26 2a3e d0f1 1b3e ea25 7b3f
00000030: bdd2 30bf bd15 bd3e 1324 a73b 06b1 96bf
00000040: 99fe 0f3f e82d a2bf 5cbb 3ebe 9512 1d3e
00000050: fbe2 00be 2e49 ca3e 2441 3dbb 5734 5f3e
00000060: fe0c 24bf 4758 533e 1285 c23d 4da0 c23e
00000070: a8f1 93bf 7740 b4be d689 093e 083c bd3d
00000080: 0509 293e 2019 fc39 394e fa3e 9671 bdbe
00000090: 3b7f 3b3e b541 6bbe 0c53 9ebd d03c 04bf
000000a0: 77f1 783e 7012 c9be 551b ca3e 0139 903d
000000b0: 03e0 34be f314 ecbe 6f9e 2fbe 6a97 6c3e
000000c0: ca14 bcbe c6db 9abd 766a 183f 1584 28bf
000000d0: f9f4 063f 9900 8abd 7812 1d3e a42c e5be
000000e0: 9f65 6b3e 9917 f7be 4818 52be 3436 25be
000000f0: a67f 0dbe f05c 25bf c731 c4be 5d76 ee3e
00000100: 4b79 4b3f 0099 e73e d9e0 c53e b097 e7be
00000110: 5b02 d63d 7187 fd3d a1e1 1a3e f72d d3be
00000120: a0f9 183e bf03 74be 5332 033e fcea 6d3f
00000130: 4db6 24bf a0ff 03bf ffba a5be 7e08 b0be
00000140: f4fa 003f 5278 a6bd 8ba6 903d 4f1d 7bbd
00000150: f580 883d 7e70 693f cf02 8e3e 5c63 473d
00000160: 294e 2c3e d5c7 b0bd c9a7 62bf d43f 293f
00000170: cc10 0dbf de32 c1be c766 39be f31e 74bf
00000180: 2db9 883f 4938 933e 984e 793d a685 423d
00000190: 18b7 1ebf 174a cc3d 05a5 933e e2bf b9be
000001a0: 4fa5 ce3e c653 debd 66ba 3cbe 9038 f33f
000001b0: 7599 f6bf 6252 5cbe 393b 01bf 42e2 b3bf
000001c0: 28c9 883d dc55 02be cda3 7e3e 0921 1ebf
000001d0: 8dcf 9a3e acc3 99be dca5 0b3e 6565 16bf
000001e0: 0d54 dd3e c0a7 aabe bc75 a4bd 1c8f d93d
000001f0: ac40 f6bd ab09 83be ed96 78be 5b2b 993e
00000200: ea37 51bd a46e d2bd 6736 ee3e e965 cebe
00000210: deaf 483e 8ca5 d7be 8a61 5e3e e9fe eabe
00000220: 799c b13e c400 9cbe 1b0c 483e a916 0fbe
00000230: 9dbd 06be 8551 84be be59 3abf 9f74 073f
00000240: fb4f 723e 1a76 e63d c578 4c3e 9830 fe3d
00000250: fac1 fabe 87fa 863e f965 d4ba 52a9 83be
00000260: dd68 9e3d 93fd 3cbe f03d 4e3e ba0d 053d
00000270: a810 13bf cba3 69be 6f9d 4c3e 3156 93be
00000280: c03d 223f 14fe 383f 68cd 463e c466 08be
00000290: d714 09be 7c1b 133f e334 d13e 6250 993b
000002a0: 87d1 b93a 826a 1dbe 9654 4bbe a94a ee3e
000002b0: 779b 8cbf c6a7 70be 4416 dc3d 0cfa 6dbf
000002c0: 8971 ff3c 4174 95bd b5e2 2c3e 6de8 89be
000002d0: 4b40 d9bd b6c3 e4bd 5286 22be 0bd9 12bf
000002e0: 2c0a d93e ac16 58be ade0 cb3e defa 353f
000002f0: f1b8 7ebe c8c9 83be 5270 b0be acc2 7fbe
00000300: 8c79 fa3d 03f7 9bbe c883 083e 7178 53be
00000310: 54ef 49bf 3975 24be 0d48 20be 6318 57bd
00000320: 20fc da3e abac e0bc 4a5f 493e deee bf3f
00000330: 8f40 44be 0a83 673d 333c c6be 757d abbf
00000340: 0f9f 263f 198a 4cbe bf41 5abe 3d49 c63c
00000350: c67c dbbf 0ed5 393e 776c 37bd 3e5d 74bd
00000360: 8013 383e 1ea8 1abe dceb e73e add1 473f
00000370: 77f9 9abf 0a26 a8bd 3d10 493d 664a 26bf
00000380: 6a93 f3be 89e5 bf3e 412a f03e 1129 4dbf
00000390: a501 ad3e 660d fdbe 4028 473e e482 46bf
000003a0: 2315 0b3f 8bd5 34bf fbba 8ebe 897a 87be
000003b0: 9a29 bf3a 1b60 f5be 7ea9 e6be 6ffa 7a3e
000003c0: 8b05 fb3d 9384 dfbd 9036 7cbe cd20 f4bd
000003d0: 42c7 f4be 8dbf c5b9 09f5 75be 7f73 3b3c
000003e0: a33a fe3e 316f 9a3e 2e8a ae3e daea 543f
000003f0: 9cb5 06bf 0baa 2ebe f861 50be 910e 41bf

rnn.bias_ih_l0 f4 [48]
-0.15560254 -0.587006 0.1471602 0.0016798626 0.39678603 -0.1904351 -0.034128074 0.08927325
0.30231047 0.16875072 -0.069562 0.0370809 -0.06295797 0.11487262 0.30470568 0.040191595
-0.07724592 0.05015825 -0.20744252 -0.09189626 -0.20298441 -0.34367862 -0.31342968 0.1872891
0.0023579712 -0.089059286 0.09436125 0.0023012916 -0.122994944 -0.29527786 0.061865114 0.01893068
0.0067757377 -0.097100385 0.4391961 -0.30157754 0.10574524 -0.026027834 0.057699673 -0.1875374
-0.15114553 -0.47016075 0.1253554 -0.1183854 0.0070808716 -0.16779107 -0.17011875 0.22618538
00000000: 4656 1fbe 0646 16bf 2ab1 163e d62e dc3a
00000010: 8a27 cb3e 6b01 43be e1c9 0bbd e5d4 b63d
00000020: 70c8 9a3e fdcc 2c3e 8676 8ebd 24e2 173d
00000030: 1cf0 80bd 5642 eb3d 6202 9c3e f19f 243d
00000040: 1c33 9ebd bd72 4d3d d06b 54be 1b34 bcbd
00000050: 25db 4fbe a5f6 afbe db79 a0be b7c8 3f3e
00000060: 3188 1a3b b764 b6bd 7940 c13d 44d1 163b
00000070: c6e4 fbbd a92e 97be 4666 7d3d 8314 9b3c
00000080: 0207 de3b 91dc c6bd 50de e03e 5f68 9abe
00000090: f690 d83d 5338 d5bc 7e56 6c3d ce09 40be
000000a0: e5c5 1abe e9b8 f0be 2a5d 003e 0b74 f2bd
000000b0: a806 e83b 6cd1 2bbe 9c33 2ebe 249d 673e

rnn.bias_hh_l0 f4 [48]
0.07355315 -0.31617033 0.4145317 0.27574602 0.3328561 -0.1578322 -0.19735222 0.23127963
0.054497074 0.18388332 -0.08057232 0.18722992 -0.16264494 0.07288396 0.11990255 -0.1471391
0.10585708 -0.13477468 -0.25142488 -0.23232791 -0.48640847 -0.24671948 0.07302038 0.12807733
0.03514835 -0.3793236 -0.065017104 0.081732616 -0.2180713 -0.05256099 0.0024117427 -0.004593171
-0.04969244 0.47849396 0.3254182 -0.31218 0.3012908 -0.15595594 0.08401416 -0.13884397
0.06254206 -0.3588647 0.055187892 -0.03854962 0.01994553 -0.14773737 -0.06576639 0.12382333
00000000: 09a3 963d 14e1 a1be 803d d43e 952e 8d3e
00000010: 1d6c aa3e c49e 21be b316 4abe 91d4 6c3e
00000020: 5338 5f3d e94b 3c3e 1a03 a5bd 33b9 3f3e
00000030: 658c 26be 3044 953d 788f f53d a2ab 16be
00000040: 99cb d83d 6002 0abe c3ba 80be 5ee7 6dbe
00000050: 880a f9be 08a4 7cbe b68b 953d b426 033e
00000060: b7f7 0f3d b436 c2be b027 85bd 6e63 a73d
00000070: 154e 5fbe 314a 57bd 540e 1e3b 5082 96bb
00000080: 4d8a 4bbd 29fd f43e 379d a63e 0fd6 9fbe
00000090: ca42 9a3e eab2 1fbe 9e0f ac3d 1d2d 0ebe
000000a0: 0d16 803d 1dbd b7be b30c 623d 35e6 1dbd
000000b0: cf64 a33c 7748 17be 87b0 86bd 1697 fd3d

output_layer.weight f4 [6, 16]
7.721251 8.083148 7.0446005 -7.626496 7.4778523 7.5904202 7.988328 -7.337183
7.6348963 -7.0977597 -6.966087 7.2491 -7.514737 -8.288653 -7.397187 -7.4762077
1.8461266 -0.24070722 0.3230111 -0.3907898 1.0779035 -2.314926 2.0061553 -0.74153936
0.14846379 -0.705184 1.2880305 1.3970755 0.3995781 -1.5311077 -0.638573 0.46333152
0.08022422 3.5203054 1.125806 -1.1941347 0.46564525 0.75903434 1.768684 -1.0775093
2.5874493 -0.89064604 0.38401264 1.3038012 0.16960184 -2.8177612 -1.1821362 0.55321646
0.14693691 -1.756427 0.042785972 0.03290695 -0.29292625 2.3128977 0.087694466 -0.33948022
-0.24969257 -0.30597606 -1.8506747 0.40574694 2.3303597 0.3709928 -0.16966127 -0.5168795
1.5994903 5.1642313 -0.12953018 -0.0027413303 -0.12758605 3.4837794 -0.44726667 -0.08928938
-0.08266679 0.23058867 1.0261571 -0.17502883 0.6731148 5.882592 -0.0042449287 -0.60514826
-1.5322256 -4.463872 0.25946426 -0.12989305 -0.1603051 5.676568 0.18807463 0.15429546
-0.243003 0.105576515 -2.8062832 0.111255325 -1.8286 1.3035895 -0.036388233 6.982192
00000000: 7d14 f740 9354 0141 5e6d e140 410c f4c0
00000010: 914a ef40 b9e4 f240 62a0 ff40 34ca eac0
00000020: 1251 f440 d920 e3c0 2fea dec0 a1f8 e740
00000030: ba78 f0c0 539e 04c1 c2b5 ecc0 183d efc0
00000040: e04d ec3f f47b 76be b661 a53e 9a15 c8be
00000050: bef8 893f bf27 14c0 d964 0040 86d5 3dbf
00000060: e406 183e f086 34bf 2fde a43f 5fd3 b23f
00000070: 8095 cc3e 56fb c3bf 8579 23bf ca39 ed3e
00000080: 994c a43d af4c 6140 691a 903f 68d9 98bf
00000090: 0e69 ee3e 1350 423f 3d64 e23f d3eb 89bf
000000a0: c598 2540 6101 64bf 4e9d c43e f5e2 a63f
000000b0: 1bac 2d3e 3356 34c0 3d50 97bf 989f 0d3f
000000c0: a176 163e 9ad2 e0bf 5840 2f3d 70c9 063d
000000d0: 6efa 95be 8406 1440 2899 b33d 5ad0 adbe
000000e0: 69af 7fbe e5a8 9cbe e9e2 ecbf 10be cf3e
000000f0: 9d24 1540 c5f2 bd3e afbb 2dbe 3752 04bf
00000100: 19bc cc3f 6241 a540 8fa3 04be e4a7 33bb
00000110: eba5 02be 3ef6 5e40 2300 e5be 5add b6bd
00000120: 354d a9bd 701f 6c3e 1e59 833f c23a 33be
00000130: 4051 2c3f 323e bc40 0b19 8bbb ffea 1abf
00000140: f81f c4bf 0ad8 8ec0 80d8 843e af02 05be
00000150: 0527 24be 72a6 b540 a396 403e a1ff 1d3e
00000160: c7d5 78be 8038 d83d 259a 33c0 d5d9 e33d
00000170: 910f eabf 05dc a63f d40b 15bd 1e6e df40

output_layer.bias f4 [6]
7.212508 0.033673316 1.1043358 -0.24262324 -0.0006810851 0.28405696
00000000: decc e640 08ed 093d e05a 8d3f 3a72 78be
00000010: d98a 32ba ea6f 913e
